…
      "    \u001b[2;3mat\u001b[0m /home/runner/work/xet-core/xet-core/cas_client/src/http_client.rs:227\n",
      "\n",
      "  \u001b[2m2025-12-03T17:07:21.407074Z\u001b[0m \u001b[33m WARN\u001b[0m  \u001b[33mRetry attempt #2. Sleeping 2.635605396s before the next attempt\u001b[0m\n",
      "    \u001b[2;3mat\u001b[0m /root/.cargo/registry/src/index.crates.io-1949cf8c6b5b557f/reqwest-retry-0.7.0/src/middleware.rs:171\n",
      "\n"
     ]
    },
    {
     "data": {
      "text/plain": [
       "ResNetForImageClassification(\n",
       "  (resnet): ResNetModel(\n",
       "    (embedder): ResNetEmbeddings(\n",
       "      (embedder): ResNetConvLayer(\n",
       "        (convolution): Conv2d(3, 64, kernel_size=(7, 7), stride=(2, 2), padding=(3, 3), bias=False)\n",
       "        (normalization): BatchNorm2d(64, eps=1e-05, momentum=0.1, affine=True, track_running_stats=True)\n",
       "        (activation): ReLU()\n",
       "      )\n",
       "      (pooler): MaxPool2d(kernel_size=3, stride=2, padding=1, dilation=1, ceil_mode=False)\n",
       "    )\n",
       "    (encoder): ResNetEncoder(\n",
       "      (stages): ModuleList(\n",
       "        (0): ResNetStage(\n",
       "          (layers): Sequential(\n",
       "            (0): ResNetBottleNeckLayer(\n",
       "              (shortcut): ResNetShortCut(\n",
       "                (convolution): Conv2d(64, 256, kernel_size=(1, 1), stride=(1, 1), bias=False)\n",
       "                (normalization): BatchNorm2d(256, eps=1e-05, momentum=0.1, affine=True, track_running_stats=True)\n",
       "              )\n",
       "              (layer): Sequential(\n",
       "                (0): ResNetConvLayer(\n",
       "                  (convolution): Conv2d(64, 64, kernel_size=(1, 1), stride=(1, 1), bias=False)\n",
       "                  (normalization): BatchNorm2d(64, eps=1e-05, momentum=0.1, affine=True, track_running_stats=True)\n",
       "                  (activation): ReLU()\n",
       "                )\n",
       "                (1): ResNetConvLayer(\n",
       "                  (convolution): Conv2d(64, 64, kernel_size=(3, 3), stride=(1, 1), padding=(1, 1), bias=False)\n",
       "                  (normalization): BatchNorm2d(64, eps=1e-05, momentum=0.1, affine=True, track_running_stats=True)\n",
       "                  (activation): ReLU()\n",
       "                )\n",
       "                (2): ResNetConvLayer(\n",
       "                  (convolution): Conv2d(64, 256, kernel_size=(1, 1), stride=(1, 1), bias=False)\n",
       "                  (normalization): BatchNorm2d(256, eps=1e-05, momentum=0.1, affine=True, track_running_stats=True)\n",
       "                  (activation): Identity()\n",
       "                )\n",
       "              )\n",
       "              (activation): ReLU()\n",
       "            )\n",
       "            (1): ResNetBottleNeckLayer(\n",
       "              (shortcut): Identity()\n",
       "              (layer): Sequential(\n",
       "                (0): ResNetConvLayer(\n",
       "                  (convolution): Conv2d(256, 64, kernel_size=(1, 1), stride=(1, 1), bias=False)\n",
       "                  (normalization): BatchNorm2d(64, eps=1e-05, momentum=0.1, affine=True, track_running_stats=True)\n",
       "                  (activation): ReLU()\n",
       "                )\n",
       "                (1): ResNetConvLayer(\n",
       "                  (convolution): Conv2d(64, 64, kernel_size=(3, 3), stride=(1, 1), padding=(1, 1), bias=False)\n",
       "                  (normalization): BatchNorm2d(64, eps=1e-05, momentum=0.1, affine=True, track_running_stats=True)\n",
       "                  (activation): ReLU()\n",
       "                )\n",
       "                (2): ResNetConvLayer(\n",
       "                  (convolution): Conv2d(64, 256, kernel_size=(1, 1), stride=(1, 1), bias=False)\n",
       "                  (normalization): BatchNorm2d(256, eps=1e-05, momentum=0.1, affine=True, track_running_stats=True)\n",
       "                  (activation): Identity()\n",
       "                )\n",
       "              )\n",
       "              (activation): ReLU()\n",
       "            )\n",
       "            (2): ResNetBottleNeckLayer(\n",
       "              (shortcut): Identity()\n",
       "              (layer): Sequential(\n",
       "                (0): ResNetConvLayer(\n",
       "                  (convolution): Conv2d(256, 64, kernel_size=(1, 1), stride=(1, 1), bias=False)\n",
       "                  (normalization): BatchNorm2d(64, eps=1e-05, momentum=0.1, affine=True, track_running_stats=True)\n",
       "                  (activation): ReLU()\n",
       "                )\n",
       "                (1): ResNetConvLayer(\n",
       "                  (convolution): Conv2d(64, 64, kernel_size=(3, 3), stride=(1, 1), padding=(1, 1), bias=False)\n",
       "                  (normalization): BatchNorm2d(64, eps=1e-05, momentum=0.1, affine=True, track_running_stats=True)\n",
       "                  (activation): ReLU()\n",
       "                )\n",
       "                (2): ResNetConvLayer(\n",
       "                  (convolution): Conv2d(64, 256, kernel_size=(1, 1), stride=(1, 1), bias=False)\n",
       "                  (normalization): BatchNorm2d(256, eps=1e-05, momentum=0.1, affine=True, track_running_stats=True)\n",
       "                  (activation): Identity()\n",
       "                )\n",
       "              )\n",
       "              (activation): ReLU()\n",
       "            )\n",
       "          )\n",
       "        )\n",
       "        (1): ResNetStage(\n",
       "          (layers): Sequential(\n",
       "            (0): ResNetBottleNeckLayer(\n",
       "              (shortcut): ResNetShortCut(\n",
       "                (convolution): Conv2d(256, 512, kernel_size=(1, 1), stride=(2, 2), bias=False)\n",
       "                (normalization): BatchNorm2d(512, eps=1e-05, momentum=0.1, affine=True, track_running_stats=True)\n",
       "              )\n",
       "              (layer): Sequential(\n",
       "                (0): ResNetConvLayer(\n",
       "                  (convolution): Conv2d(256, 128, kernel_size=(1, 1), stride=(1, 1), bias=False)\n",
       "                  (normalization): BatchNorm2d(128, eps=1e-05, momentum=0.1, affine=True, track_running_stats=True)\n",
       "                  (activation): ReLU()\n",
       "                )\n",
       "                (1): ResNetConvLayer(\n",
       "                  (convolution): Conv2d(128, 128, kernel_size=(3, 3), stride=(2, 2), padding=(1, 1), bias=False)\n",
       "                  (normalization): BatchNorm2d(128, eps=1e-05, momentum=0.1, affine=True, track_running_stats=True)\n",
       "                  (activation): ReLU()\n",
       "                )\n",
       "                (2): ResNetConvLayer(\n",
       "                  (convolution): Conv2d(128, 512, kernel_size=(1, 1), stride=(1, 1), bias=False)\n",
       "                  (normalization): BatchNorm2d(512, eps=1e-05, momentum=0.1, affine=True, track_running_stats=True)\n",
       "                  (activation): Identity()\n",
       "                )\n",
       "              )\n",
       "              (activation): ReLU()\n",
       "            )\n",
       "            (1): ResNetBottleNeckLayer(\n",
       "              (shortcut): Identity()\n",
       "              (layer): Sequential(\n",
       "                (0): ResNetConvLayer(\n",
       "                  (convolution): Conv2d(512, 128, kernel_size=(1, 1), stride=(1, 1), bias=False)\n",
       "                  (normalization): BatchNorm2d(128, eps=1e-05, momentum=0.1, affine=True, track_running_stats=True)\n",
       "                  (activation): ReLU()\n",
       "                )\n",
       "                (1): ResNetConvLayer(\n",
       "                  (convolution): Conv2d(128, 128, kernel_size=(3, 3), stride=(1, 1), padding=(1, 1), bias=False)\n",
       "                  (normalization): BatchNorm2d(128, eps=1e-05, momentum=0.1, affine=True, track_running_stats=True)\n",
       "                  (activation): ReLU()\n",
       "                )\n",
       "                (2): ResNetConvLayer(\n",
       "                  (convolution): Conv2d(128, 512, kernel_size=(1, 1), stride=(1, 1), bias=False)\n",
       "                  (normalization): BatchNorm2d(512, eps=1e-05, momentum=0.1, affine=True, track_running_stats=True)\n",
       "                  (activation): Identity()\n",
       "                )\n",
       "              )\n",
       "              (activation): ReLU()\n",
       "            )\n",
       "            (2): ResNetBottleNeckLayer(\n",
       "              (shortcut): Identity()\n",
       "              (layer): Sequential(\n",
       "                (0): ResNetConvLayer(\n",
       "                  (convolution): Conv2d(512, 128, kernel_size=(1, 1), stride=(1, 1), bias=False)\n",
       "                  (normalization): BatchNorm2d(128, eps=1e-05, momentum=0.1, affine=True, track_running_stats=True)\n",
       "                  (activation): ReLU()\n",
       "                )\n",
       "                (1): ResNetConvLayer(\n",
       "                  (convolution): Conv2d(128, 128, kernel_size=(3, 3), stride=(1, 1), padding=(1, 1), bias=False)\n",
       "                  (normalization): BatchNorm2d(128, eps=1e-05, momentum=0.1, affine=True, track_running_stats=True)\n",
       "                  (activation): ReLU()\n",
       "                )\n",
       "                (2): ResNetConvLayer(\n",
       "                  (convolution): Conv2d(128, 512, kernel_size=(1, 1), stride=(1, 1), bias=False)\n",
       "                  (normalization): BatchNorm2d(512, eps=1e-05, momentum=0.1, affine=True, track_running_stats=True)\n",
       "                  (activation): Identity()\n",
       "                )\n",
       "              )\n",
       "              (activation): ReLU()\n",
       "            )\n",
       "            (3): ResNetBottleNeckLayer(\n",
       "              (shortcut): Identity()\n",
       "              (layer): Sequential(\n",
       "                (0): ResNetConvLayer(\n",
       "                  (convolution): Conv2d(512, 128, kernel_size=(1, 1), stride=(1, 1), bias=False)\n",
       "                  (normalization): BatchNorm2d(128, eps=1e-05, momentum=0.1, affine=True, track_running_stats=True)\n",
       "                  (activation): ReLU()\n",
       "                )\n",
       "                (1): ResNetConvLayer(\n",
       "                  (convolution): Conv2d(128, 128, kernel_size=(3, 3), stride=(1, 1), padding=(1, 1), bias=False)\n",
       "                  (normalization): BatchNorm2d(128, eps=1e-05, momentum=0.1, affine=True, track_running_stats=True)\n",
       "                  (activation): ReLU()\n",
       "                )\n",
       "                (2): ResNetConvLayer(\n",
       "                  (convolution): Conv2d(128, 512, kernel_size=(1, 1), stride=(1, 1), bias=False)\n",
       "                  (normalization): BatchNorm2d(512, eps=1e-05, momentum=0.1, affine=True, track_running_stats=True)\n",
       "                  (activation): Identity()\n",
       "                )\n",
       "              )\n",
       "              (activation): ReLU()\n",
       "            )\n",
       "          )\n",
       "        )\n",
       "        (2): ResNetStage(\n",
       "          (layers): Sequential(\n",
       "            (0): ResNetBottleNeckLayer(\n",
       "              (shortcut): ResNetShortCut(\n",
       "                (convolution): Conv2d(512, 1024, kernel_size=(1, 1), stride=(2, 2), bias=False)\n",
       "                (normalization): BatchNorm2d(1024, eps=1e-05, momentum=0.1, affine=True, track_running_stats=True)\n",
       "              )\n",
       "              (layer): Sequential(\n",
       "                (0): ResNetConvLayer(\n",
       "                  (convolution): Conv2d(512, 256, kernel_size=(1, 1), stride=(1, 1), bias=False)\n",
       "                  (normalization): BatchNorm2d(256, eps=1e-05, momentum=0.1, affine=True, track_running_stats=True)\n",
       "                  (activation): ReLU()\n",
       "                )\n",
       "                (1): ResNetConvLayer(\n",
       "                  (convolution): Conv2d(256, 256, kernel_size=(3, 3), stride=(2, 2), padding=(1, 1), bias=False)\n",
       "                  (normalization): BatchNorm2d(256, eps=1e-05, momentum=0.1, affine=True, track_running_stats=True)\n",
       "                  (activation): ReLU()\n",
       "                )\n",
       "                (2): ResNetConvLayer(\n",
       "                  (convolution): Conv2d(256, 1024, kernel_size=(1, 1), stride=(1, 1), bias=False)\n",
       "                  (normalization): BatchNorm2d(1024, eps=1e-05, momentum=0.1, affine=True, track_running_stats=True)\n",
       "                  (activation): Identity()\n",
       "                )\n",
       "              )\n",
       "              (activation): ReLU()\n",
       "            )\n",
       "            (1): ResNetBottleNeckLayer(\n",
       "              (shortcut): Identity()\n",
       "              (layer): Sequential(\n",
       "                (0): ResNetConvLayer(\n",
       "                  (convolution): Conv2d(1024, 256, kernel_size=(1, 1), stride=(1, 1), bias=False)\n",
       "                  (normalization): BatchNorm2d(256, eps=1e-05, momentum=0.1, affine=True, track_running_stats=True)\n",
       "                  (activation): ReLU()\n",
       "                )\n",
       "                (1): ResNetConvLayer(\n",
       "                  (convolution): Conv2d(256, 256, kernel_size=(3, 3), stride=(1, 1), padding=(1, 1), bias=False)\n",
       "                  (normalization): BatchNorm2d(256, eps=1e-05, momentum=0.1, affine=True, track_running_stats=True)\n",
       "                  (activation): ReLU()\n",
       "                )\n",
       "                (2): ResNetConvLayer(\n",
       "                  (convolution): Conv2d(256, 1024, kernel_size=(1, 1), stride=(1, 1), bias=False)\n",
       "                  (normalization): BatchNorm2d(1024, eps=1e-05, momentum=0.1, affine=True, track_running_stats=True)\n",
       "                  (activation): Identity()\n",
       "                )\n",
       "              )\n",
       "              (activation): ReLU()\n",
       "            )\n",
       "            (2): ResNetBottleNeckLayer(\n",
       "              (shortcut): Identity()\n",
       "              (layer): Sequential(\n",
       "                (0): ResNetConvLayer(\n",
       "                  (convolution): Conv2d(1024, 256, kernel_size=(1, 1), stride=(1, 1), bias=False)\n",
       "                  (normalization): BatchNorm2d(256, eps=1e-05, momentum=0.1, affine=True, track_running_stats=True)\n",
       "                  (activation): ReLU()\n",
       "                )\n",
       "                (1): ResNetConvLayer(\n",
       "                  (convolution): Conv2d(256, 256, kernel_size=(3, 3), stride=(1, 1), padding=(1, 1), bias=False)\n",
       "                  (normalization): BatchNorm2d(256, eps=1e-05, momentum=0.1, affine=True, track_running_stats=True)\n",
       "                  (activation): ReLU()\n",
       "                )\n",
       "                (2): ResNetConvLayer(\n",
       "                  (convolution): Conv2d(256, 1024, kernel_size=(1, 1), stride=(1, 1), bias=False)\n",
       "                  (normalization): BatchNorm2d(1024, eps=1e-05, momentum=0.1, affine=True, track_running_stats=True)\n",
       "                  (activation): Identity()\n",
       "                )\n",
       "              )\n",
       "              (activation): ReLU()\n",
       "            )\n",
       "            (3): ResNetBottleNeckLayer(\n",
       "              (shortcut): Identity()\n",
       "              (layer): Sequential(\n",
       "                (0): ResNetConvLayer(\n",
       "                  (convolution): Conv2d(1024, 256, kernel_size=(1, 1), stride=(1, 1), bias=False)\n",
       "                  (normalization): BatchNorm2d(256, eps=1e-05, momentum=0.1, affine=True, track_running_stats=True)\n",
       "                  (activation): ReLU()\n",
       "                )\n",
       "                (1): ResNetConvLayer(\n",
       "                  (convolution): Conv2d(256, 256, kernel_size=(3, 3), stride=(1, 1), padding=(1, 1), bias=False)\n",
       "                  (normalization): BatchNorm2d(256, eps=1e-05, momentum=0.1, affine=True, track_running_stats=True)\n",
       "                  (activation): ReLU()\n",
       "                )\n",
       "                (2): ResNetConvLayer(\n",
       "                  (convolution): Conv2d(256, 1024, kernel_size=(1, 1), stride=(1, 1), bias=False)\n",
       "                  (normalization): BatchNorm2d(1024, eps=1e-05, momentum=0.1, affine=True, track_running_stats=True)\n",
       "                  (activation): Identity()\n",
       "                )\n",
       "              )\n",
       "              (activation): ReLU()\n",
       "            )\n",
       "            (4): ResNetBottleNeckLayer(\n",
       "              (shortcut): Identity()\n",
       "              (layer): Sequential(\n",
       "                (0): ResNetConvLayer(\n",
       "                  (convolution): Conv2d(1024, 256, kernel_size=(1, 1), stride=(1, 1), bias=False)\n",
       "                  (normalization): BatchNorm2d(256, eps=1e-05, momentum=0.1, affine=True, track_running_stats=True)\n",
       "                  (activation): ReLU()\n",
       "                )\n",
       "                (1): ResNetConvLayer(\n",
       "                  (convolution): Conv2d(256, 256, kernel_size=(3, 3), stride=(1, 1), padding=(1, 1), bias=False)\n",
       "                  (normalization): BatchNorm2d(256, eps=1e-05, momentum=0.1, affine=True, track_running_stats=True)\n",
       "                  (activation): ReLU()\n",
       "                )\n",
       "                (2): ResNetConvLayer(\n",
       "                  (convolution): Conv2d(256, 1024, kernel_size=(1, 1), stride=(1, 1), bias=False)\n",
       "                  (normalization): BatchNorm2d(1024, eps=1e-05, momentum=0.1, affine=True, track_running_stats=True)\n",
       "                  (activation): Identity()\n",
       "                )\n",
       "              )\n",
       "              (activation): ReLU()\n",
       "            )\n",
       "            (5): ResNetBottleNeckLayer(\n",
       "              (shortcut): Identity()\n",
       "              (layer): Sequential(\n",
       "                (0): ResNetConvLayer(\n",
       "                  (convolution): Conv2d(1024, 256, kernel_size=(1, 1), stride=(1, 1), bias=False)\n",
       "                  (normalization): BatchNorm2d(256, eps=1e-05, momentum=0.1, affine=True, track_running_stats=True)\n",
       "                  (activation): ReLU()\n",
       "                )\n",
       "                (1): ResNetConvLayer(\n",
       "                  (convolution): Conv2d(256, 256, kernel_size=(3, 3), stride=(1, 1), padding=(1, 1), bias=False)\n",
       "                  (normalization): BatchNorm2d(256, eps=1e-05, momentum=0.1, affine=True, track_running_stats=True)\n",
       "                  (activation): ReLU()\n",
       "                )\n",
       "                (2): ResNetConvLayer(\n",
       "                  (convolution): Conv2d(256, 1024, kernel_size=(1, 1), stride=(1, 1), bias=False)\n",
       "                  (normalization): BatchNorm2d(1024, eps=1e-05, momentum=0.1, affine=True, track_running_stats=True)\n",
       "                  (activation): Identity()\n",
       "                )\n",
       "              )\n",
       "              (activation): ReLU()\n",
       "            )\n",
       "          )\n",
       "        )\n",
       "        (3): ResNetStage(\n",
       "          (layers): Sequential(\n",
       "            (0): ResNetBottleNeckLayer(\n",
       "              (shortcut): ResNetShortCut(\n",
       "                (convolution): Conv2d(1024, 2048, kernel_size=(1, 1), stride=(2, 2), bias=False)\n",
       "                (normalization): BatchNorm2d(2048, eps=1e-05, momentum=0.1, affine=True, track_running_stats=True)\n",
       "              )\n",
       "              (layer): Sequential(\n",
       "                (0): ResNetConvLayer(\n",
       "                  (convolution): Conv2d(1024, 512, kernel_size=(1, 1), stride=(1, 1), bias=False)\n",
       "                  (normalization): BatchNorm2d(512, eps=1e-05, momentum=0.1, affine=True, track_running_stats=True)\n",
       "                  (activation): ReLU()\n",
       "                )\n",
       "                (1): ResNetConvLayer(\n",
       "                  (convolution): Conv2d(512, 512, kernel_size=(3, 3), stride=(2, 2), padding=(1, 1), bias=False)\n",
       "                  (normalization): BatchNorm2d(512, eps=1e-05, momentum=0.1, affine=True, track_running_stats=True)\n",
       "                  (activation): ReLU()\n",
       "                )\n",
       "                (2): ResNetConvLayer(\n",
       "                  (convolution): Conv2d(512, 2048, kernel_size=(1, 1), stride=(1, 1), bias=False)\n",
       "                  (normalization): BatchNorm2d(2048, eps=1e-05, momentum=0.1, affine=True, track_running_stats=True)\n",
       "                  (activation): Identity()\n",
       "                )\n",
       "              )\n",
       "              (activation): ReLU()\n",
       "            )\n",
       "            (1): ResNetBottleNeckLayer(\n",
       "              (shortcut): Identity()\n",
       "              (layer): Sequential(\n",
       "                (0): ResNetConvLayer(\n",
       "                  (convolution): Conv2d(2048, 512, kernel_size=(1, 1), stride=(1, 1), bias=False)\n",
       "                  (normalization): BatchNorm2d(512, eps=1e-05, momentum=0.1, affine=True, track_running_stats=True)\n",
       "                  (activation): ReLU()\n",
       "                )\n",
       "                (1): ResNetConvLayer(\n",
       "                  (convolution): Conv2d(512, 512, kernel_size=(3, 3), stride=(1, 1), padding=(1, 1), bias=False)\n",
       "                  (normalization): BatchNorm2d(512, eps=1e-05, momentum=0.1, affine=True, track_running_stats=True)\n",
       "                  (activation): ReLU()\n",
       "                )\n",
       "                (2): ResNetConvLayer(\n",
       "                  (convolution): Conv2d(512, 2048, kernel_size=(1, 1), stride=(1, 1), bias=False)\n",
       "                  (normalization): BatchNorm2d(2048, eps=1e-05, momentum=0.1, affine=True, track_running_stats=True)\n",
       "                  (activation): Identity()\n",
       "                )\n",
       "              )\n",
       "              (activation): ReLU()\n",
       "            )\n",
       "            (2): ResNetBottleNeckLayer(\n",
       "              (shortcut): Identity()\n",
       "              (layer): Sequential(\n",
       "                (0): ResNetConvLayer(\n",
       "                  (convolution): Conv2d(2048, 512, kernel_size=(1, 1), stride=(1, 1), bias=False)\n",
       "                  (normalization): BatchNorm2d(512, eps=1e-05, momentum=0.1, affine=True, track_running_stats=True)\n",
       "                  (activation): ReLU()\n",
       "                )\n",
       "                (1): ResNetConvLayer(\n",
       "                  (convolution): Conv2d(512, 512, kernel_size=(3, 3), stride=(1, 1), padding=(1, 1), bias=False)\n",
       "                  (normalization): BatchNorm2d(512, eps=1e-05, momentum=0.1, affine=True, track_running_stats=True)\n",
       "                  (activation): ReLU()\n",
       "                )\n",
       "                (2): ResNetConvLayer(\n",
       "                  (convolution): Conv2d(512, 2048, kernel_size=(1, 1), stride=(1, 1), bias=False)\n",
       "                  (normalization): BatchNorm2d(2048, eps=1e-05, momentum=0.1, affine=True, track_running_stats=True)\n",
       "                  (activation): Identity()\n",
       "                )\n",
       "              )\n",
       "              (activation): ReLU()\n",
       "            )\n",
       "          )\n",
       "        )\n",
       "      )\n",
       "    )\n",
       "    (pooler): AdaptiveAvgPool2d(output_size=(1, 1))\n",
       "  )\n",
       "  (classifier): Sequential(\n",
       "    (0): Flatten(start_dim=1, end_dim=-1)\n",
       "    (1): Linear(in_features=2048, out_features=120, bias=True)\n",
       "  )\n",
       ")"
      ]
     },
     "execution_count": 6,
     "metadata": {},
     "output_type": "execute_result"
    }
   ],
   "source": [
    "num_classes = 120\n",
    "model = ResNetForImageClassification.from_pretrained(\"microsoft/resnet-50\")\n",
    "#print(model.classifier[1])\n",
    "in_channels = model.classifier[1].in_features\n",
…
